data.pth (torch, 8924 bytes, 8 tensors)

l1.weight f4 [8, 119]
000000 20 bf 89 3d b6 bf 00 3f 8e e5 99 bd 35 5c aa bd
       0.06725907 0.5029253 -0.07514487 -0.08318368
000010 7d c6 50 3e 4d 4a 14 be 27 5b 86 3b db dd ad 3d
       0.20388217 -0.14481468 0.0041002217 0.08489581
000020 87 83 e0 bd 69 c0 8f 3e 72 bd a0 3d 10 11 a7 be
       -0.10962587 0.28076485 0.07848634 -0.32630205
000030 15 05 bd 3e c4 29 d2 bc 6e af a7 be 8f fa 4f 3e
       0.3691794 -0.025654681 -0.3275103 0.20310424
000040 f7 63 a7 be 9e 50 df bd c0 e6 1b 3e 6f bc 39 be
       -0.32693455 -0.109040484 0.15224743 -0.18138288
000050 ab ea c8 bd 42 16 6d 3e b9 3d 3f be 75 bb dc bd
       -0.09810384 0.23153022 -0.18675889 -0.10777942
000060 0f 44 a7 be 29 4e 83 be 39 0d 05 3e 48 84 bd bd
       -0.32669112 -0.2564557 0.12993325 -0.09253746
000070 6f c0 55 3e d1 88 5d be af 77 b7 bd f0 81 36 bd
       0.20874189 -0.21634223 -0.08958375 -0.04455751
000080 10 8b 26 3f af 45 81 3e c9 23 8c 3d 8f 74 02 3f
       0.6505594 0.25248477 0.06842763 0.50959104
000090 ec 83 d9 3e 98 ea d1 3c b2 43 99 be 71 69 e3 bb
       0.4248346 0.025624558 -0.2993446 -0.00694006
0000a0 4d 5d a7 be d4 aa 33 be 53 b7 a8 be dd 13 97 be
       -0.3268837 -0.17545635 -0.32952365 -0.29507342
0000b0 2b 15 57 be 25 ab 64 bb 51 e3 79 3d d5 4d a0 3d
       -0.21004169 -0.003489205 0.0610078 0.07827345
0000c0 79 2b 86 bb 3e 81 fc ba 36 ca 25 be 5d 30 dd 3c
       -0.004094538 -0.0019264591 -0.16190419 0.0270006
0000d0 af 4f 0c 3f 13 00 9d 3e 31 ce 3d be 46 33 04 be
       0.5480909 0.3066412 -0.18535687 -0.12910184
0000e0 43 a3 74 be e1 00 80 be b5 03 fb 3e db 45 9b be
       -0.23890404 -0.2500067 0.49026266 -0.30326733
0000f0 75 f4 04 bf 1b 17 1e 3f bc b7 c3 3e e2 4a 2a 3f
       -0.5193551 0.61754006 0.38226116 0.6652051
000100 05 79 4c 3e 4f 9c 08 3d 44 01 1b be 9b 17 f2 3e
       0.1996804 0.033352192 -0.15137202 0.47283635
000110 97 3e cf bd f1 99 c3 3f d2 49 b7 bd 08 3f 98 3d
       -0.1011936 1.5281354 -0.08949627 0.07433897
000120 a2 f5 b5 3d ab e9 89 be 3b ae 79 be 76 52 08 be
       0.08884741 -0.26936087 -0.2438287 -0.13312706
000130 e0 11 4c be b1 67 d6 be 35 90 a7 bd 61 cb c0 be
       -0.19928694 -0.41875985 -0.08181802 -0.37655166
000140 63 18 a7 be f9 e1 8e 3e 85 12 20 be 97 2f 4b 3f
       -0.32635793 0.27906778 -0.15632065 0.7936949
000150 fd 7d 8f 3d 70 26 d8 bd dc 75 02 bf de 53 e3 3e
       0.07006452 -0.10554206 -0.5096109 0.44399923
000160 27 b1 1e 3f 7b 66 f1 bc 92 61 68 be 04 76 1a 3f
       0.61989063 -0.029467812 -0.2269347 0.6033633
000170 42 8e 11 be 4c e7 bc 3d 27 f6 80 bd e7 3e ab 3d
       -0.14214423 0.09223804 -0.0629695 0.08361607
000180 c9 95 56 be 7d fd e1 bc 4c 98 a8 3b 1c 78 60 bd
       -0.20955576 -0.027586693 0.0051451083 -0.054802045
000190 8c 24 2b be e5 a4 a7 be f3 ee a6 be 17 e4 87 be
       -0.1671316 -0.32742992 -0.3260418 -0.26541206
0001a0 15 9c 0c 3e b5 70 92 3d 24 da cb 3d 2f 80 11 3f
       0.13731416 0.071504034 0.099537164 0.5683622
0001b0 b1 aa 7d be ff 8f 90 3e 18 87 47 3d d7 e9 1e be
       -0.24772145 0.2823486 0.04871282 -0.1551889
0001c0 6b 04 a3 3d 1a 73 5c 3e 5b 4f 3d 3e 78 fb 75 be
       0.07959827 0.21528283 0.18487303 -0.24021709
0001d0 3c 0e 98 3d d2 be 3f 3e 30 75 c6 be 85 68 c0 3e
       0.0742459 0.18725136 -0.38761282 0.37579742
0001e0 de 02 69 be d4 ab 51 3e c2 2b 91 3e 86 b6 33 bd
       -0.22755 0.20475703 0.28353697 -0.04387524
0001f0 fe 7d 31 3d 2d ca 20 be 61 d5 65 3e 44 12 0d 3c
       0.043333046 -0.15702124 0.22444679 0.008610312
000200 44 dc c2 bc f5 b8 bd bd 12 c7 79 3f a2 3d 17 3e
       -0.023786671 -0.092637934 0.9756938 0.14769605
000210 15 df b7 be 8b 6f 79 3f 31 ca 04 3f f1 a3 83 3f
       -0.35912386 0.97435826 0.5187102 1.0284406
000220 4e ce 0b 3d 91 13 b9 bd 4d 46 8c 3e 50 1f 87 3e
       0.034132294 -0.09036935 0.27397385 0.26391077
000230 b2 bb 3c 3f 27 71 7d 3f d0 41 9c 3e c8 bd 83 3f
       0.737239 0.9900078 0.3051896 1.0292292
000240 81 f4 a2 3d ce 47 29 3f 27 0a 8d 3f 1e eb fb bd
       0.07956792 0.6612519 1.1018723 -0.123007044
000250 1d 20 5a 3f 9c 2d 04 3d 3d c0 c0 bd 2f 6f 42 be
       0.8520525 0.03227006 -0.094116665 -0.18987726
000260 52 3a 86 be 31 39 9f bd e7 20 15 be 22 a5 de be
       -0.2621637 -0.0777458 -0.14563332 -0.4348536
000270 82 86 a3 3d c5 f0 bb 3e df 38 1e be 72 29 6d 3f
       0.0798464 0.3670713 -0.15451382 0.92641366
000280 26 57 fb 3e 64 57 87 3f 21 11 59 3d 24 28 28 bc
       0.49089926 1.0573545 0.05299485 -0.0102634765
000290 3b d0 42 3e 85 6b 99 be cb 68 7c be 63 8b 9e bd
       0.19024746 -0.29964843 -0.2464935 -0.0774143
0002a0 71 23 61 3e 12 f0 51 bd 65 74 97 be b8 45 22 bd
       0.21986176 -0.05125434 -0.2958099 -0.03961727
0002b0 15 61 bb 3e a9 aa 9c 3e c5 02 55 3e fe 54 8a 3c
       0.36597505 0.30598953 0.20801838 0.01688623
0002c0 78 9b e2 3d 68 bf 09 be 0f e1 1c 3f f8 2b 2e 3f
       0.110648096 -0.13451922 0.6128091 0.6803584
0002d0 c3 34 80 be 7b 05 54 be 15 2c b2 be 7d 92 3e 3f
       -0.25040254 -0.20705216 -0.34799257 0.74442273
0002e0 f7 85 24 3d 14 01 29 3c 36 20 ad bd 47 a4 3e 3d
       0.04016682 0.010315198 -0.084534094 0.046543386
0002f0 8c 4e df be b6 56 d9 3d 99 37 4a 3e 37 59 cd 3d
       -0.43614614 0.10612242 0.19747771 0.10026782
000300 aa 54 09 be 1c de cb 3d ec c8 9d bd 8f 85 03 3f
       -0.13411203 0.099544734 -0.077043384 0.5137567
000310 93 da db 3e e8 f2 02 3e 15 f2 00 3f da 53 61 3f
       0.42940196 0.12787974 0.5036939 0.8801857
000320 e6 30 a1 be 69 91 a3 3d 22 18 69 be 75 1f 0a be
       -0.3148262 0.07986719 -0.22763112 -0.13488562
000330 c9 b0 12 3e 86 fe 3e 3f 63 e4 84 bd 7b 61 a8 bc
       0.1432525 0.7460712 -0.06488874 -0.020554295
000340 c9 76 4d 3d 8f 27 41 3f 9e e1 be bd 75 a5 97 3e
       0.05016211 0.75450987 -0.09320377 0.2961842
000350 05 0e 32 3e 52 a5 df 3e ec 3c 79 bd 31 0d 1b 3f
       0.1738816 0.43680817 -0.060849115 0.60567003
000360 82 61 45 be 42 08 75 be de b2 12 3e 03 8a ee bd
       -0.19275478 -0.23928931 0.14326045 -0.116474174
000370 c4 37 81 3f b7 77 6d 3f 70 a5 df 3d 81 d4 82 bc
       1.0095143 0.92760795 0.109202266 -0.01597047
000380 10 b3 5e be dc a9 fa 3d d0 af 97 be 0d 3f 2f 3d
       -0.21747994 0.12239429 -0.29626322 0.04278474
000390 02 69 00 3d 39 14 8d be 58 86 90 3e 91 c7 68 3e
       0.031350143 -0.2755449 0.28227496 0.22732379
0003a0 f1 28 75 3e e5 43 61 3e 14 43 63 3d fc 8f 85 be
       0.23941399 0.21998556 0.055483893 -0.26086414
0003b0 bd 48 c9 3e 93 4c ce 3e 4e 5b 82 3e 93 69 24 3e
       0.39313307 0.40292796 0.25460285 0.16055898
0003c0 79 ec 58 3e 8d 49 54 3e 51 f7 e4 3d 4b 9b 13 3f
       0.21183957 0.20731182 0.11179984 0.57658833
0003d0 a9 68 00 3e 5a fc 5d 3e 86 28 63 3c e9 85 64 3e
       0.12539925 0.21678296 0.013864642 0.22316708
0003e0 66 fc 9c 3e 73 2b 2f 3f 9a b4 f3 3c 17 b6 b8 bd
       0.30661315 0.68425673 0.029749203 -0.09019106
0003f0 b0 2a 45 3f 6a cf 83 be 96 4f 26 3f ae 9d b8 3d
       0.7701826 -0.25744182 0.6496519 0.0901445

l1.bias f4 [8]
000000 55 5a a5 3e 26 c2 d4 3e c2 8e f7 3e ca 0f ce 3e
       0.3229548 0.41554374 0.48351103 0.4024642
000010 3d 90 ca 3e 16 31 d1 3e 82 20 6b 3f 60 e6 89 3e
       0.3956317 0.40857762 0.9184648 0.26933575

l2.weight f4 [8, 8]
000000 03 a0 4b bf 05 b8 41 3f 0c 58 36 3f 18 14 9e 3f
       -0.79541034 0.75671417 0.712281 1.2349882
000010 7b 8c 18 bf b1 0f 5c 3f 3d 00 36 3f c8 8b 20 bf
       -0.59589356 0.85961443 0.71094114 -0.6271329
000020 06 1a 09 bf 03 a2 90 3f f5 66 6b 3f ba 76 e0 3c
       -0.53555334 1.1299442 0.91953975 0.027400363
000030 d1 19 fe be 32 9c 83 3f 05 11 71 3f e6 36 81 bf
       -0.4962907 1.0282042 0.94166595 -1.0094879
000040 6f d1 1b 3d 6d 98 f3 3e 33 4c 0c 3f 4f 61 60 bf
       0.03804153 0.4757723 0.5480377 -0.8764848
000050 22 38 ed 3d e4 f2 0e 3f 38 79 c7 3f 71 a6 27 bf
       0.11582972 0.5583937 1.5583868 -0.65488344
000060 ef cd c9 3e 1a e4 bc 3f 21 60 a0 bf 78 3a 9a bf
       0.39414927 1.4757111 -1.2529336 -1.2049093
000070 95 30 30 3f 76 d9 25 bf 97 e6 7e 3f bf 5e 80 3f
       0.6882413 -0.64784944 0.995706 1.0028914
000080 99 e5 af 3f a2 0b 2f bf 81 c8 64 3c a9 5b 95 3e
       1.3741943 -0.68377125 0.0139638195 0.29171494
000090 e4 ca 4c 3f 7a 32 2a be 64 dc 13 3e 70 74 b5 3f
       0.79997087 -0.16620818 0.14439541 1.4176159
0000a0 9e fe 4b 3d 94 e3 47 3f c3 90 00 3f a3 2a 42 3f
       0.04980337 0.7808163 0.5022089 0.7584631
0000b0 69 b9 8e bf d1 56 11 3f 17 4f 32 3e d1 7a c9 bd
       -1.1150333 0.56773096 0.17412983 -0.098378785
0000c0 4c a5 27 bf c1 7a 01 3f d1 37 68 3f 66 16 d9 3f
       -0.654866 0.5057793 0.9071017 1.695996
0000d0 58 f6 0d 3f 03 a0 17 3f 42 11 33 3f b7 73 b3 bd
       0.55454016 0.59228534 0.6994821 -0.08762305
0000e0 b3 fa 10 be d4 3f 96 3d 1f 00 68 be 3d c0 33 3e
       -0.14158134 0.07336393 -0.22656296 0.17553802
0000f0 eb 01 2b be 0b cd 46 3e d2 5d 6c be 8e 69 75 be
       -0.1669995 0.19414155 -0.23082665 -0.23966047

l2.bias f4 [8]
000000 58 ad 11 3f fd 2e 35 3e de b3 5a 3f ce 7b 8d 3e
       0.56905127 0.17693706 0.85430706 0.27633518
000010 9a 19 f3 3e 90 29 d7 bd 71 12 02 3f fb dc 6a be
       0.4748047 -0.10505974 0.5080939 -0.2293586

l3.weight f4 [8, 8]
000000 57 94 09 3f 2d 7e 84 3f 19 f8 23 3f 3e e1 a9 3e
       0.53741974 1.0351006 0.6405044 0.3317966
000010 71 51 91 bf 17 55 cc bd 15 12 1b 3e e6 9c 05 be
       -1.1352979 -0.09977167 0.15143616 -0.13048133
000020 27 dc c9 3e 49 f0 a3 3d 9e e1 b3 bb 84 26 43 bf
       0.39425775 0.08004815 -0.005489542 -0.76230645
000030 f8 49 02 3f 18 de 2c bf 53 57 49 3f 0c d7 0e 3e
       0.5089412 -0.6752639 0.7864887 0.13949221
000040 7c 58 4f 3f b8 cd 30 3f 12 80 bc 3e 43 8c 9b bf
       0.8099439 0.690639 0.3681646 -1.215218
000050 86 c6 6a bf 58 0b 88 3f 5e 9e 05 3d 10 08 44 bd
       -0.9170917 1.0628462 0.032621734 -0.04785925
000060 c3 cb c3 bd da 17 10 3e 44 10 95 3f b2 7c 6b 3f
       -0.09560349 0.14071599 1.1645589 0.91987145
000070 8c 8f cb be 87 46 f4 be b4 6b a5 3e 2e 63 7c 3e
       -0.39757955 -0.47710058 0.32308733 0.24647209
000080 49 39 4d be 9d dd df 3d c1 87 7f 3f 16 ed 16 40
       -0.20041384 0.10930941 0.9981652 2.3582206
000090 25 2a 91 3f 2f 0b d9 be d0 2b 43 bf 6f 4c 84 3e
       1.1340986 -0.42391345 -0.7623873 0.25839564
0000a0 96 e0 76 3e 86 a5 a1 3e a8 4d 48 be 10 f3 0b 3f
       0.2410911 0.31571597 -0.19560874 0.5466776
0000b0 6f 33 16 bf 63 da 32 3f 8c 6c 90 3e df 23 88 3e
       -0.5867223 0.6986448 0.28207815 0.26589867
0000c0 db 12 56 bf 43 1a 94 bf fc 9e ce be 4c 4d 9c 3f
       -0.8362252 -1.1570514 -0.4035567 1.2211089
0000d0 5e dc b5 3f 07 41 91 3d d9 52 30 3f 33 29 a0 3e
       1.4207876 0.07092481 0.68876415 0.31281433
0000e0 43 12 82 3f 77 7f a4 3e 0b 47 e3 3e a0 cc db 3e
       1.0161823 0.32128498 0.4439014 0.42929554
0000f0 d1 cf 80 be e4 26 af 3f 75 7d 52 3f be 14 3e 3e
       -0.2515855 1.3683743 0.8222268 0.185626

l3.bias f4 [8]
000000 20 83 e9 bd 3b 92 ca 3e 26 9c b9 bd f4 40 e4 3e
       -0.11401963 0.3956469 -0.09062986 0.44580805
000010 d5 fa ee 3e ca a7 6e bd e1 c9 b8 3e 7b df 25 be
       0.46675745 -0.058265485 0.3609152 -0.16198532

l4.weight f4 [7, 8]
000000 ff bf b8 be e4 ed 7c bf 7e 31 c1 bf 3a b5 22 3f
       -0.3608398 -0.9880049 -1.5093229 0.6355778
000010 ec 4d 16 be aa 19 62 3f 2e 66 7c bf 6c 83 08 bf
       -0.14678162 0.8832041 -0.98593414 -0.53325534
000020 7a d3 03 bf 27 71 06 bf 9f 3f 34 bd 18 c4 e3 bf
       -0.5149456 -0.52516407 -0.044005986 -1.7794218
000030 44 f8 09 3f e3 fa 6c 3d 0b a2 24 3f 1c 2e 22 c0
       0.5389445 0.05785645 0.6430976 -2.5340643
000040 57 d6 5f 3b dc 32 27 3f c4 69 cc be 00 35 ce bf
       0.0034154856 0.6531198 -0.39924443 -1.6109924
000050 3a 42 24 be b7 aa 84 be 9c 4f 32 3f 49 3a ac bf
       -0.16040888 -0.25911495 0.69652724 -1.3455287
000060 f0 3e de 3e 1a 34 68 be 59 78 3c 3f fa 17 fc be
       0.43407393 -0.22676125 0.73621136 -0.49237043
000070 02 41 dd bf 04 6c 18 3f 62 06 0f c0 4d 72 db 3e
       -1.7285464 0.5953982 -2.2347646 0.42860642
000080 fa 38 1d 3f a3 90 ae 3e b8 1b 36 3e f1 c5 c9 3e
       0.61415064 0.34094724 0.17784011 0.3940883
000090 f4 df 74 bf a7 b1 dc bd 57 04 34 c0 8e a7 72 3c
       -0.95654225 -0.10776072 -2.812765 0.014810456
0000a0 e2 18 96 bf 70 38 ae be 33 39 ba be f1 50 f3 3e
       -1.1726344 -0.34027433 -0.36371765 0.4752269
0000b0 71 ae b4 3e f5 71 b2 bf fe f9 65 3d 1d 71 9e bf
       0.35289338 -1.3941027 0.056146614 -1.237827
0000c0 37 c4 76 bf 94 9f 4d 3f 85 eb e0 bf 88 98 37 3d
       -0.9639315 0.8032162 -1.7571875 0.0448232
0000d0 70 fa 83 bf 72 3e 0f be fa d2 b4 be 35 87 e1 3e
       -1.0310802 -0.13988665 -0.35317212 0.44048467

l4.bias f4 [7]
000000 a0 90 3b be f9 85 da be 31 14 20 3e 49 ba 98 be
       -0.18316889 -0.42680338 0.15632702 -0.29829624
000010 ee 33 99 be 94 cb bb 3e 8c 39 11 3e
       -0.29922432 0.36678755 0.14182109
