data.pth (torch, 8924 bytes, 8 tensors)

l1.weight f4 [8, 119]
0.3367389 0.51747924 0.07180557 0.392843 0.18192813 -0.1490643 -0.10909482 0.13422939
0.03123762 0.3275752 0.13986279 0.516053 -0.17522305 -0.31717455 0.6165075 0.5267961
0.6670444 -0.17731187 -0.013760886 0.24421841 0.18735068 0.04807059 0.2779394 0.16929345
0.5817025 0.1339185 -0.10842532 -0.18875225 0.13742304 0.38033515 -0.12216474 -0.058755822
0.55206364 0.40348798 0.36852753 -0.68913805 1.484418 0.16311055 0.31038874 -0.10404413
0.57198435 0.3985335 0.6423532 -0.036675274 0.09231738 0.17722589 -0.22708319 -0.17325915
-0.17936662 0.21645743 0.033651616 -0.11459021 -0.60232264 0.67465836 0.18904778 0.15149418
-0.073887065 0.22674182 -0.60248643 0.47019583 0.44779038 0.2921431 -0.06790112 0.33229896
0.4556634 0.31835032 -0.066978715 -0.6019068 -0.114135854 -0.12538202 0.16388343 0.21534339
0.142807 0.2055782 -0.09752739 -0.022234745 -0.49703202 0.31683382 0.12657759 0.25500748
0.5689795 0.7541862 0.069279455 0.66491514 0.022565406 0.15192902 0.40949798 0.16225879
0.6338369 -0.09125771 0.56645024 0.3870764 0.3065581 0.4598046 0.24889924 -0.46000472
-0.23774636 -0.07163319 0.4513392 0.004712095 0.045367066 0.48615307 0.60687524 -0.07205931
0.41829118 -0.105424754 0.22695413 0.07235683 -0.0068561044 0.15563652 -0.22139858 0.17021963
-0.044788975 0.39646238 0.23744208 0.14893939 -0.20563413 0.65583986 0.010876588 0.03650584
0.044912722 -0.013782879 -0.054894194 0.06338569 0.3987955 0.35925984 0.004334302 -0.06935679
-0.04065829 -0.27046046 -0.30860126 0.3596342 0.21016856 -0.2180831 0.31531125 -0.263097
-0.0820377 0.027849078 0.055160105 0.08371676 0.6424073 -0.061697453 -0.016200187 -0.24232307
0.24451675 0.57885754 -0.47576597 0.20303093 -0.3432308 0.25986764 0.23727654 0.014455282
-0.13038848 -0.092022404 0.6043037 -0.3966621 -0.021526776 0.03542468 0.3501298 -0.21841769
0.14925823 -0.17093125 0.002908349 0.08452515 0.1504383 0.49885303 0.5329355 0.36031625
0.045859434 0.9725792 0.47463363 0.5240464 0.025296604 0.07108817 0.07887189 0.7988469
0.12098863 0.5196583 0.09477901 0.5025668 -0.30883935 -0.16084348 -0.113366246 0.4954941
0.30528384 0.57459927 0.52025306 0.30545786 -0.4545124 -0.014654929 -0.1034497 -0.012948571
-0.16170713 -0.05639345 0.31302896 0.028938904 0.27771786 0.0061831274 0.20358412 -0.065832846
-0.35688445 0.4290574 -0.35101 0.32581404 0.057999466 0.51640713 0.0371992 -0.07422783
0.34380695 0.08541779 -0.26021412 0.089563504 -0.23564456 -0.04412783 0.32370445 -0.052279416
0.34242442 -0.26649475 0.19659275 0.4873084 -0.18401901 -0.1666849 0.023686014 -0.15013881
0.2517588 0.063596494 0.056622095 0.42787707 -0.50740594 0.46375638 0.08752894 -0.38238353
0.12918362 -0.052239947 0.30865362 0.5494709 0.19033246 -0.14491625 -0.1796005 -0.45341983
0.040604297 -0.15760572 -0.030858392 0.42057118 0.25065613 0.023713594 -0.21064065 -0.20132819
-0.031486303 -0.30422008 0.34891838 0.42422697 -0.31854412 0.62548953 -0.30275947 0.021037737
00000000: 0b69 ac3e 8579 043f cc0e 933d b822 c93e
00000010: 5e4b 3a3e 50a4 18be 1b6d dfbd 6e73 093e
00000020: 0ae6 ff3c f0b7 a73e 3138 0f3e 0d1c 043f
00000030: ac6d 33be b464 a2be 6fd3 1d3f 1cdc 063f
00000040: 6cc3 2a3f 3e91 35be 5775 61bc 6414 7a3e
00000050: dbd8 3f3e abe5 443d 134e 8e3e 435b 2d3e
00000060: 74ea 143f ee21 093e 180e debd 4548 41be
00000070: a0b8 0c3e 4abb c23e 8231 fabd f2a9 70bd
00000080: 0b54 0d3f fa95 ce3e a4af bc3e 5a6b 30bf
00000090: 6901 be3f 7406 273e 46eb 9e3e 1715 d5bd
000000a0: 916d 123f 950c cc3e 4271 243f d038 16bd
000000b0: e510 bd3d b47a 353e 7f88 68be d96a 31be
000000c0: e2ab 37be 04a7 5d3e 47d6 093d 46ae eabd
000000d0: d131 1abf 69b6 2c3f be95 413e 4a21 1b3e
000000e0: 1a52 97bd 022f 683e 8d3c 1abf 82bd f03e
000000f0: c844 e53e c893 953e be0f 8bbd 1723 aa3e
00000100: b74c e93e d0fe a23e 232c 89bd 9016 1abf
00000110: 0fc0 e9bd 2564 00be 0fd1 273e fa82 5c3e
00000120: 003c 123e 1783 523e 71bc c7bd a425 b6bc
00000130: fb7a febe 0b38 a23e 8e9d 013e 5790 823e
00000140: a4a8 113f 5912 413f 63e2 8d3d e137 2a3f
00000150: 16db b83c 4893 1b3e b8a9 d13e 2b27 263e
00000160: 2343 223f 52e5 babd e202 113f e12e c63e
00000170: 2ff5 9c3e 826b eb3e 71df 7e3e bd85 ebbe
00000180: c873 73be 6cb4 92bd ee15 e73e eb67 9a3b
00000190: d1d2 393d 0ee9 f83e 2d5c 1b3f d593 93bd
000001a0: 432a d63e efe8 d7bd aa66 683e d12f 943d
000001b0: 2ca9 e0bb 2e5f 1f3e 4fb6 62be 0e4e 2e3e
000001c0: a574 37bd 1efd ca3e 0424 733e 9183 183e
000001d0: c191 52be 1fe5 273f b733 323c 2687 153d
000001e0: 67f6 373d 96d1 61bc bcd8 60bd 5bd0 813d
000001f0: ec2e cc3e e8f0 b73e c306 8e3b ef0a 8ebd
00000200: 4f89 26bd cb79 8abe fc00 9ebe f921 b83e
00000210: 6d36 573e 2d51 5fbe 7a70 a13e a6b4 86be
00000220: 6203 a8bd c023 e43c 90ef 613d b173 ab3d
00000230: ce74 243f 78b6 7cbd 41b6 84bc 8a23 78be
00000240: 9962 7a3e 0230 143f 9997 f3be 57e7 4f3e
00000250: f3bb afbe 5f0d 853e 9ff8 723e d9d5 6c3c
00000260: 8f84 05be 3e76 bcbd a6b3 1a3f 4b17 cbbe
00000270: ec58 b0bc 7819 113d 3744 b33e e3a8 5fbe
00000280: 26d7 183e 9a08 2fbe 009a 3e3b 861b ad3d
00000290: 7f0c 1a3e aa69 ff3e 766e 083f 5f7b b83e
000002a0: 1ad7 3b3d f3fa 783f 2e03 f33e e827 063f
000002b0: d33a cf3c ad96 913d 9687 a13d 3b81 4c3f
000002c0: e3c8 f73d 5408 053f 7f1b c23d 38a8 003f
000002d0: 3120 9ebe 27b4 24be 902c e8bd 67b1 fd3e
000002e0: 2a4e 9c3e f018 133f 4e2f 053f f964 9c3e
000002f0: d9b5 e8be 3a1b 70bc 70dd d3bd 3e26 54bc
00000300: 8e96 25be d1fc 66bd 5545 a03e 4811 ed3c
00000310: 0931 8e3e d59b ca3b 5b78 503e 5fd3 86bd
00000320: 8fb9 b6be 69ad db3e 95b7 b3be 19d1 a63e
00000330: d990 6d3d 4233 043f 305e 183d c304 98bd
00000340: 7707 b03e 86ef ae3d c93a 85be 126d b73d
00000350: cf4c 71be 62bf 34bd 97bc a53e f122 56bd
00000360: 4152 af3e 0072 88be 9c4f 493e 7d80 f93e
00000370: 7b6f 3cbe 72af 2abe 2c09 c23c fdbd 19be
00000380: 88e6 803e e13e 823d 92ec 673d b412 db3e
00000390: 5be5 01bf 7a71 ed3e 5f42 b33d c6c7 c3be
000003a0: b648 043e 8ef9 55bd d907 9e3e 20aa 0c3f
000003b0: 83e6 423e ed64 14be 32e9 37be a526 e8be
000003c0: b150 263d 6563 21be bdca fcbc 1b55 d73e
000003d0: 0056 803e 0343 c23c 2fb2 57be fa28 4ebe
000003e0: c8f7 00bd bcc2 9bbe 6ea5 b23e 4734 d93e
000003f0: 3718 a3be 1520 203f 4a03 9bbe 5557 ac3c

l1.bias f4 [8]
0.5941035 0.4610138 0.5662161 0.28291818 0.25203264 -0.11652301 0.3580908 0.24814224
00000000: 2b17 183f 000a ec3e 8af3 103f a7da 903e
00000010: 6c0a 813e 9ea3 eebd ad57 b73e 0019 7e3e

l2.weight f4 [8, 8]
0.8002356 0.07701542 -0.124682665 0.314697 -0.24020995 0.12602894 1.1664172 -0.06986342
-0.65985006 0.7678232 0.8784714 1.5210174 1.0468444 -0.15217437 0.06769509 0.51080054
1.1211768 0.5666704 0.5098566 -0.84941244 -1.0342215 -0.079054534 0.5116724 0.03081597
0.8168216 -0.5239304 -0.70802903 0.31070113 1.2679214 -0.31163773 0.43598154 1.6464313
0.13415603 1.2306303 1.3218371 0.8978548 -0.027958065 -0.19090304 0.72873473 -0.42825788
0.21525617 -0.25681707 0.88181835 1.2349635 1.7437268 0.13894714 -0.7234038 1.9440812
-0.14503042 0.18982263 -0.15518904 0.08886832 -0.28309727 0.21802315 -0.26140168 -0.27101615
1.2762351 -1.2720248 -0.6168484 0.31479922 1.5656884 -0.18897778 -1.6213564 1.619257
00000000: 3edc 4c3f 43ba 9d3d a059 ffbd f71f a13e
00000010: 99f9 75be bb0d 013e 294d 953f 8e14 8fbd
00000020: efeb 28bf 1090 443f 80e3 603f b3b0 c23f
00000030: fffe 853f 99d3 1bbe b9a3 8a3d d3c3 023f
00000040: b982 8f3f 5011 113f f685 023f 1873 59bf
00000050: 5f61 84bf 58e7 a1bd f6fc 023f c671 fc3c
00000060: 381b 513f 4d20 06bf 6441 35bf 3814 9f3e
00000070: 404b a23f fb8e 9fbe f938 df3e 43be d23f
00000080: 3360 093e 4b85 9d3f f531 a93f d0d9 653f
00000090: 5008 e5bc 167c 43be 5c8e 3a3f 9e44 dbbe
000000a0: 1d6c 5c3e 877d 83be d9be 613f 4913 9e3f
000000b0: 7132 df3f 2948 0e3e fe30 39bf a7d7 f83f
000000c0: db82 14be dd60 423e e0e9 1ebe 9800 b63d
000000d0: 20f2 90be 7641 5f3e 71d6 85be a1c2 8abe
000000e0: ac5b a33f b5d1 a2bf c7e9 1dbf 5d2d a13e
000000f0: 7a68 c83f 6483 41be 9b88 cfbf d043 cf3f

l2.bias f4 [8]
0.7303659 0.30060732 0.3371615 0.52234787 0.6446476 0.04056475 -0.11802807 0.3126191
00000000: 42f9 3a3f 34e9 993e 6fa0 ac3e 97b8 053f
00000010: a007 253f 3927 263d b3b8 f1bd 9c0f a03e

l3.weight f4 [8, 8]
0.31045637 0.6095192 -0.45081723 1.3283159 -0.76657736 1.2917559 -0.061214894 1.6713192
0.7242023 -0.16454922 1.4540223 -0.4420606 0.5783574 -0.68479604 -0.16495396 -0.66163903
0.9851491 -0.56161124 0.36478198 0.5263667 0.0925299 -0.6559278 0.087550804 -0.11533075
0.15326238 1.2166499 -0.46162167 -0.055125043 0.97052133 0.25142387 0.2788697 -0.3612218
0.6991199 -0.58759654 0.7824481 0.45669794 0.061547592 -0.67178 0.048437558 0.12400594
1.0098739 0.32785022 -1.0714538 0.4610644 -0.6586429 0.046536777 -0.11385052 0.33628005
0.42653006 0.79716885 0.068849936 -0.32776475 0.79794335 0.09251112 -0.27057683 -0.7786484
0.54043883 -0.3047135 1.0657742 -0.2359204 0.9885368 -1.0507786 0.021271793 -1.0487013
00000000: 23f4 9e3e 7309 1c3f 84d1 e6be 4106 aa3f
00000010: 6a3e 44bf 4258 a53f 78bc 7abd caed d53f
00000020: 5265 393f 977f 28be 671d ba3f c455 e2be
00000030: 3b0f 143f cb4e 2fbf b1e9 28be 2d61 29bf
00000040: bb32 7c3f c1c5 0fbf b4c4 ba3e f8bf 063f
00000050: 5180 bd3d e2ea 27bf d64d b33d 8732 ecbd
00000060: d0f0 1c3e 2fbb 9b3f ad59 ecbe ccca 61bd
00000070: 1674 783f a1ba 803e 02c8 8e3e 10f2 b8be
00000080: 86f9 323f ba6c 16bf 854e 483f 50d4 e93e
00000090: 5419 7c3d c6f9 2bbf 7666 463d d4f6 fd3d
000000a0: 8c43 813f fcdb a73e 6625 89bf a210 ec3e
000000b0: d29c 28bf 599d 3e3d 762a e9bd e62c ac3e
000000c0: 2662 da3e 4213 4c3f 3201 8d3d c8d0 a7be
000000d0: 0446 4c3f 7876 bd3d 0c89 8abe 8055 47bf
000000e0: 335a 0a3f 6803 9cbe 4a6b 883f 1e95 71be
000000f0: bf10 7d3f ea7f 86bf 2f42 ae3c d83b 86bf

l3.bias f4 [8]
0.24888723 0.006748961 0.3408765 0.5749394 0.40779325 0.491179 0.14397174 0.4448694
00000000: 4bdc 7e3e 6326 dd3b 5d87 ae3e 3b2f 133f
00000010: 47ca d03e d07b fb3e 546d 133e ecc5 e33e

l4.weight f4 [7, 8]
0.22418813 -0.96295863 -1.2906524 -0.132605 -1.4970006 -0.66658014 0.39521077 -0.66915846
-0.58134013 -0.71722776 0.53451514 -0.19256827 0.17005928 1.241677 -0.024854593 -0.2688473
0.70486885 -0.69851315 -0.26367956 -2.9500449 -0.28312573 0.17139791 -1.0072478 -0.6782862
-1.3077623 0.3135876 0.8583699 -0.8555398 0.8427062 -0.80639243 -0.33869573 0.554202
-1.0343738 0.513401 -0.7734953 0.26990914 -0.8934372 -0.9048305 0.43216428 0.47560441
-0.9112246 -1.9779564 -1.0922827 0.81682086 -0.83469 -1.6695567 0.9007159 -1.1921264
0.31684723 -1.0099863 -0.68281335 -0.3402502 -1.1525565 0.7286224 -2.368829 -0.338141
00000000: 9391 653e 7584 76bf 1934 a5bf 9bc9 07be
00000010: b79d bfbf ffa4 2abf 1159 ca3e f84d 2bbf
00000020: b5d2 14bf 3d9c 37bf fcd5 083f 9e30 45be
00000030: 0524 2e3e 46ef 9e3f dc9b cbbc 5aa6 89be
00000040: 4972 343f c2d1 32bf 0201 87be 89cd 3cc0
00000050: dbf5 90be ef82 2f3e 7fed 80bf 2aa4 2dbf
00000060: c164 a7bf 8e8e a03e 21be 5b3f a804 5bbf
00000070: 98bb 573f bc6f 4ebf 8769 adbe 2fe0 0d3f
00000080: 5c66 84bf 3f6e 033f ca03 46bf 8831 8a3e
00000090: 4db8 64bf f9a2 67bf a344 dd3e 6c82 f33e
000000a0: 0446 69bf ad2d fdbf ebcf 8bbf 2c1b 513f
000000b0: 3eae 55bf 09b4 d5bf 5195 663f 9997 98bf
000000c0: cd39 a23e 3b47 81bf dbcc 2ebf 4635 aebe
000000d0: f986 93bf ff86 3a3f e59a 17c0 d120 adbe

l4.bias f4 [7]
-0.2506992 -0.4748207 -0.052802157 -0.21227443 -0.21312478 0.10839587 0.48363197
00000000: a55b 80be b31b f3be 1347 58bd 785e 59be
00000010: 623d 5abe a7fe dd3d 9c9e f73e
